experiments/ESMBind/lora_binding_sites/best_model_esm2_t12_35M_lora_2023-11-09_12-02-07/adapter_model.safetensors (safetensors, 290320 bytes, 74 tensors)

base_model.model.classifier.bias f4 [2]
000000 f1 d4 eb bd 98 b4 eb 3d
       -0.11515225 0.11509055

base_model.model.classifier.weight f4 [2, 480]
000000 b5 13 fb ba ad 2d b1 bd fc 15 2b bd e4 19 56 3e
       -0.0019155653 -0.0865129 -0.041769013 0.20908314
000010 84 d8 18 3e a8 07 36 3e e1 2d 8b be dc db ac 3e
       0.14926344 0.17776358 -0.2718344 0.3376149
000020 10 52 c2 bd 1b b4 51 bd 77 4b 12 be 2e 6b 79 bd
       -0.094883084 -0.051197153 -0.142866 -0.06089323
000030 28 10 47 be 7b 19 11 3d d3 74 82 3d f2 ac 56 bc
       -0.19439757 0.03542469 0.06369939 -0.013102757
000040 fc a5 a5 bd 2c ea b9 bd 7c 19 22 3d 33 f0 2b 3e
       -0.080883 -0.09077868 0.039575085 0.16790847
000050 c4 1a 8d 3d 9d 65 0f 3d d6 c6 82 3d d1 5c 38 3d
       0.06889871 0.035009015 0.06385581 0.04501039
000060 61 ca a3 bd 27 4b 58 bc 52 e7 c7 3d c1 62 4e 3d
       -0.07997585 -0.013201511 0.09760918 0.050387148
000070 ed c9 0b 3c 06 51 81 3d 82 8f 46 3d be ca 8e bd
       0.00853203 0.06314282 0.048476703 -0.06972264
000080 73 0a 02 3d c4 80 ce bd 5c 15 5d be 36 e5 36 3c
       0.031748246 -0.10083154 -0.21590179 0.011163047
000090 cc c7 17 be 7d b5 45 3b cb e5 c7 3b 03 81 39 be
       -0.1482231 0.003016799 0.0061003915 -0.1811562
0000a0 95 83 01 be ce 27 a2 bb 3f 50 b3 bc 66 9b cd 3d
       -0.12647851 -0.0049485927 -0.02188885 0.100394055
0000b0 84 52 ba 3c 59 65 e6 3d 37 7f 04 3d 08 36 08 3e
       0.022744425 0.11249799 0.032347884 0.13301861
0000c0 2f 42 bd 3c 54 8c 93 3c 18 ff 6e 3d 3d 99 8d bd
       0.023102848 0.01801125 0.058348745 -0.069139935
0000d0 f2 dd 93 3c 4a f5 b3 bd e1 b1 37 3d 77 f5 33 3e
       0.018050168 -0.087870196 0.044847373 0.17574106
0000e0 fd d7 a6 bd 92 f2 48 bd d6 39 48 3d a2 ca 4c 3d
       -0.08146665 -0.049059458 0.04888328 0.049997933
0000f0 5b 58 78 3d e7 15 9d bc 99 ee ef 3c 73 b5 8c 3c
       0.060631137 -0.019175483 0.029288577 0.017176365
000100 37 ff 07 bd 46 47 20 be 96 c6 06 3d 44 8c 78 3d
       -0.033202376 -0.15652189 0.03290423 0.060680643
000110 a8 43 db 3d 68 1d 86 bd 41 6e f5 3d 04 a5 d4 3d
       0.10706264 -0.065485775 0.1198392 0.10383037
000120 13 af 4d bd 36 c8 3f 3e 93 95 58 bc 18 3d 7d 3d
       -0.050215792 0.18728718 -0.013219255 0.06182584
000130 2b f9 d0 bd da 90 22 3d 98 5d 4f bb a0 6e 7d 3d
       -0.10203775 0.039688922 -0.003164148 0.06187308
000140 0a a5 a4 bc f0 d4 ea bd e3 c0 1a be e5 ae ed bb
       -0.020098228 -0.11466396 -0.15112643 -0.007253515
000150 ef bd 22 3d 48 4e ae bd 82 fc 89 bd 44 37 d5 3d
       0.039731916 -0.08511025 -0.06737615 0.10410932
000160 ef e5 a5 bc dd 82 66 bd fb e1 84 bc ae ab 1d bd
       -0.020251242 -0.056277145 -0.016221037 -0.038493805
000170 0d a7 ff bc 94 d9 16 3e 29 31 bf 3d be 86 70 3d
       -0.031207586 0.14731437 0.093355484 0.05872225
000180 1d dd f1 bd 2e 0c b5 bc 1f 6a 0b 3e 06 49 10 be
       -0.11809752 -0.022100534 0.136147 -0.14090356
000190 af 5a 01 be f2 f7 8c bd 6d 19 b4 3d 1d af 56 3d
       -0.1263225 -0.06883229 0.08793912 0.052413095
0001a0 42 7d 25 3d 2e 3a 87 bc 39 24 01 be 3e 89 94 bc
       0.04040266 -0.016507234 -0.12611474 -0.018131848
0001b0 37 25 1f be 6f 8b 96 3c 12 59 42 3e 97 99 69 bd
       -0.1554154 0.018377034 0.1897929 -0.05703124
0001c0 f5 49 9f bd 25 40 0a 3e 00 1a 1b 3d 69 0c 88 3c
       -0.07777778 0.13501032 0.037866592 0.01660748
0001d0 5b a1 82 3d 6b d2 ed bd 3c f4 47 3e 45 d2 9d 3d
       0.06378432 -0.116124 0.19526762 0.07706121
0001e0 88 2f 74 3c 57 df 63 3d e4 b0 40 bd e4 08 f7 3d
       0.01490391 0.055632915 -0.047043696 0.120622426
0001f0 dc 0c fc bb 0d 1f b7 3c e0 fc 53 3d f9 ab 44 be
       -0.0076919626 0.022353673 0.051754832 -0.19206227
000200 17 49 a2 3c 14 cb 09 be 35 9a 76 3d af 58 28 3d
       0.019810243 -0.13456374 0.060205657 0.0411002
000210 93 ad 66 3d 32 ed cd 3d 0f 99 e9 3d 5a a6 73 bd
       0.056317877 0.10055007 0.11406147 -0.059484817
000220 06 08 f7 3c e6 5b 81 bd 89 de 40 be c2 93 ad 3d
       0.030155193 -0.06316356 -0.1883489 0.08475448
000230 bd 34 f8 bd 70 98 33 3d 13 83 93 3d ce c6 f8 bd
       -0.12119434 0.043846548 0.07202735 -0.12147294
000240 ae ad 48 bd 42 02 21 3d 20 77 d4 bd e0 ba 32 be
       -0.04899376 0.039308794 -0.10374284 -0.174541
000250 71 2d ce bd 53 4f bf bc 02 71 82 3c df 47 06 be
       -0.10067261 -0.023353254 0.015923027 -0.13113354
000260 60 94 07 3e ed 8e be bb a1 26 7d 3c 2b bd 42 bd
       0.13240194 -0.005815378 0.015451104 -0.047543686
000270 b5 64 22 bd 57 0e cb bd 77 54 eb 3c 24 59 40 3d
       -0.039646823 -0.099148445 0.0287268 0.04696001
000280 ce c3 f4 3d 35 f3 4a bc b5 a7 b2 3c 87 b4 bc 3d
       0.11951409 -0.012387087 0.021808485 0.0921412
000290 2b 5f 58 3e c4 06 90 be 88 21 ed 3d d0 d2 78 bd
       0.21130054 -0.28130162 0.11578661 -0.06074792
0002a0 fc 1d c3 3d 2f 33 45 bb 7e 33 d2 3d f4 b0 cd 3d
       0.095272034 -0.0030090322 0.102637276 0.10043517
0002b0 28 8c 8a be 4b 85 96 3b b3 44 b2 3d f2 19 d3 bc
       -0.27060056 0.0045935265 0.087045096 -0.025769208
0002c0 f5 23 5d 3c 15 33 30 bd d2 f1 96 be 5b 34 cb bd
       0.013497342 -0.043017466 -0.2948137 -0.099220954
0002d0 73 2b 94 3b 82 79 45 be 39 54 aa bd 3a f7 9a bd
       0.004521781 -0.19284633 -0.083168454 -0.07566686
0002e0 7e 1b ff bd e7 b1 81 3a 19 75 41 be 94 9c 8f 3d
       -0.124564156 0.0009894938 -0.18892325 0.07012287
0002f0 27 f4 86 bd d5 f6 3a bd 91 ff 87 3e 54 9c 36 be
       -0.06589537 -0.045645554 0.2656217 -0.17833072
000300 f8 e5 3c be c6 49 6c 3d bd 06 8b bc 20 7d d9 bd
       -0.18447101 0.057687543 -0.016970987 -0.10619569
000310 05 5d ea 3d 47 04 07 3e 21 26 01 3b 01 a1 1f bd
       0.11443523 0.13185225 0.0019706564 -0.038971905
000320 6f 37 fd bc 97 a2 98 3d b8 1a e4 3d 4f 77 c1 3c
       -0.030910222 0.074528866 0.11137909 0.023616461
000330 0f 9c b7 3d 15 34 1d 3d ab ed 45 3d dc 42 b6 bd
       0.08965313 0.038379747 0.04832236 -0.08899471
000340 4b b8 57 bd 26 3f 89 3c 8e 0b ae 3d 68 71 01 bd
       -0.05266599 0.016753744 0.08498298 -0.031602293
000350 49 7a f2 bd a3 6b 60 3e ad 54 b2 3d e5 b6 0a bd
       -0.1183973 0.2191606 0.08707557 -0.033865828
000360 be 7f 65 bd 00 0b df 3b 7e 7d 0e 3e 54 ed bf bd
       -0.056030028 0.006806731 0.13915059 -0.093714386
000370 97 1a 88 3d f8 1c c7 bc e5 d3 59 bb e3 85 8b 3e
       0.066456966 -0.024305806 -0.0033237871 0.27250585
000380 0f 4c 47 3d 40 ec d0 3c de 92 d5 bc 13 0e de bd
       0.04865652 0.025503278 -0.026071008 -0.10842528
000390 8c 83 26 be 54 64 cc 3c 4e 8b 96 bd c7 3b da 3b
       -0.16261119 0.024950184 -0.07350789 0.006659958
0003a0 09 b4 ab bc af 65 1b 3e 23 c7 a0 3d 1b d2 23 3e
       -0.02095987 0.15175508 0.07850482 0.15998118
0003b0 c2 da 19 3d 41 26 cd 3c a3 ba d7 bc 58 02 20 3e
       0.03756214 0.025042655 -0.026334113 0.15625894
0003c0 8f 3c bb bd 27 c7 9f bc 70 c4 ad bd 51 18 56 bd
       -0.0914241 -0.019504143 -0.08484733 -0.052269284
0003d0 fc d3 45 bd c4 c4 26 3c b4 1d 9e 3e aa 3c 54 3d
       -0.048297867 0.0101787485 0.30882037 0.051815666
0003e0 a4 4b fc 3d 66 ef 8e bd 52 89 81 be 11 cd 2f be
       0.12319115 -0.069792554 -0.2530008 -0.1716807
0003f0 7f 19 10 3d 07 4b 39 bc e8 6b 7e 3d c1 c9 4c bd
       0.035180565 -0.011309392 0.062114626 -0.049997095

base_model.model.esm.encoder.layer.0.attention.self.key.lora_A.weight f4 [2, 480]
000000 a8 93 c6 3b f5 cb c0 bc 4a 5c 6b 3d e1 17 af 3c
       0.0060600825 -0.023534754 0.05746106 0.021373691
000010 80 2d 83 bc fe 5b 1b 3c bb 11 95 bc 92 4e 0e 3d
       -0.016012907 0.009482382 -0.018196931 0.0347429
000020 5c 9a 15 bc 71 00 63 bc 8e 91 ec 3c 45 79 89 bd
       -0.00913104 -0.013855086 0.028878 -0.067125835
000030 27 b6 80 3d 20 2c 8f 3d f2 b6 e9 bc 1a 88 d6 bc
       0.06284743 0.06990838 -0.028529618 -0.026187945
000040 d9 22 15 bd 35 ab aa bb 62 c2 96 bd d0 ee 25 bd
       -0.036410186 -0.0052083977 -0.07361294 -0.040510952
000050 a2 d3 ac bd 18 91 3f 3d 12 39 62 bb 9b 4f f0 39
       -0.08438803 0.04676923 -0.003451888 0.00045835678
000060 90 32 22 3d b4 62 99 3d eb fb f9 bb 6c a6 06 bc
       0.039599 0.07489529 -0.007628908 -0.008218389
000070 49 1e 7a bc cf 7c b3 bd 6e 75 8d 3d 22 b4 a0 bd
       -0.01526601 -0.0876404 0.069071636 -0.078468576
000080 da d0 64 3c 6e b0 62 3d 93 f0 89 bd e4 7d 8a bc
       0.01396581 0.055344038 -0.06735339 -0.016905732
000090 83 e4 b0 bc b3 22 2d 3c 9d e8 9d bc e4 c4 39 3b
       -0.021593338 0.010567355 -0.019275958 0.0028346116
0000a0 0c d6 eb bc a5 7a 15 bd 63 00 bf 3c 61 7e f5 3d
       -0.028788589 -0.036493916 0.023315614 0.119869955
0000b0 f0 7f a8 bd 85 f1 33 bd 3f 57 20 3d cf 2b ae bc
       -0.08227527 -0.043931503 0.039145704 -0.021261124
0000c0 46 72 18 be 3d 4a 9f 3d b1 9c 15 3d 26 08 94 bd
       -0.14887342 0.07777832 0.036526386 -0.07228117
0000d0 c7 c6 ee 3c ea 20 7a bd 12 2d 46 3d bb 9d 8a 3c
       0.029147519 -0.061066546 0.048382826 0.016920915
0000e0 ca c8 7a 3c b3 6c 52 bc 19 6e 69 3d 37 fe 92 bd
       0.015306661 -0.012843299 0.056989763 -0.07177394
0000f0 b7 0f ff 3c 9f f8 7b bd 88 30 1b bd e7 9f 8d 3d
       0.031135423 -0.0615164 -0.03788808 0.069152646
000100 55 6a a6 3c cc a6 11 3d a8 a7 a7 3d b3 4e b1 bd
       0.020314375 0.03555946 0.08186275 -0.08657589
000110 70 5e 9c bb e1 e2 fd 3d df 87 27 bd 12 17 1f bd
       -0.004772 0.12396789 -0.04090106 -0.03884036
000120 8b d5 98 bd 37 4e 94 3c d6 79 25 3d e5 5c d8 3c
       -0.07462605 0.018103702 0.040399395 0.026411483
000130 7d 76 e6 3b fc 28 41 bd ce 63 97 3c 25 37 8f bb
       0.007033168 -0.047158226 0.018480208 -0.0043705874
000140 52 2a f7 3c df 4b 99 bd 7d db ca 3d bf a5 0f bd
       0.030171547 -0.074851744 0.09905145 -0.035070177
000150 c6 a2 a7 bc d2 3b 9a bd c3 59 b2 bc 80 d4 d1 3c
       -0.020463359 -0.07530941 -0.021771317 0.025614023
000160 4d e0 0f bc cb 10 2d bd 0e 16 c8 3d f5 b4 cb bb
       -0.008781505 -0.042252343 0.097698316 -0.00621664
000170 9c 7d 83 3c a6 d3 80 3d 2a d3 92 bc 4b 0f 86 bc
       0.016051106 0.06290369 -0.017922956 -0.016364714
000180 74 e4 3c 3d 96 f6 42 3c 26 4b 97 bd 4b 0d 9d 3d
       0.046116307 0.011899611 -0.0738738 0.07668551
000190 b4 57 54 3c 82 f2 7e 3c 56 33 e4 bd 23 14 1b 3e
       0.012960363 0.015560748 -0.11142604 0.151444
0001a0 97 e0 af bd f3 d4 8e 3d 89 fa fc bd 67 10 5e bd
       -0.08587759 0.069742106 -0.12352473 -0.05421486
0001b0 b7 67 30 be 0d 50 81 3c a5 48 a6 3d 4e 29 c1 3d
       -0.17227064 0.015785241 0.081193246 0.09431706
0001c0 ca 62 0a 3e 6b f9 35 3d 46 ef 9b 3d ea 94 87 bc
       0.13514248 0.044427317 0.07613997 -0.0165505
0001d0 2e 23 de bd c9 2a 68 bd 5f 2f 1b 3d 8f 9a 12 3e
       -0.10846554 -0.056681428 0.037886973 0.14316772
0001e0 f5 b1 e3 bd 7a 3a 8d 3c 30 c4 cc 3c 0f 2d bb bc
       -0.11117927 0.017239798 0.024995893 -0.022848634
0001f0 ce bd 06 3e da 4b 52 bd a8 d4 3f be 4f dd 24 bc
       0.13158342 -0.05134187 -0.18733466 -0.01006253
000200 28 6c d6 bc 7c 94 bd bd 3a 0d 89 3d 2d 74 c3 3d
       -0.02617462 -0.09256837 0.06691976 0.09543643
000210 40 23 81 bc 12 c6 83 3d 16 b3 42 bd ac ef 63 bd
       -0.015763879 0.06434263 -0.04753407 -0.05564849
000220 f3 3b c8 3c 76 a2 1e bd 1a 9c 2b bd f6 17 a9 3c
       0.024442649 -0.038729154 -0.041896917 0.020641308
000230 85 2a de 3d 18 35 df 3d 09 a1 17 3d d5 2f b1 3d
       0.10847954 0.10898799 0.03701881 0.08651701
000240 3f f5 a9 bd 6a 10 19 bd c6 d5 37 bd 23 22 93 bd
       -0.0829873 -0.03736917 -0.044881605 -0.071842454
000250 4a e2 fa 3c 18 15 cc 3c 4c 48 21 3d b0 e6 7a bd
       0.030625481 0.024912402 0.03937559 -0.061255157
000260 ea f9 8a 3d 40 29 ab 3c 2f 53 07 3d 2d 1d 86 bd
       0.067859486 0.020893693 0.033038314 -0.065485336
000270 99 6b a1 bd c1 66 e8 bc b5 dc f8 3d 59 1a e6 bd
       -0.07881851 -0.02836931 0.121514715 -0.11235494
000280 8f 3c f7 bc bf 90 79 bd aa 00 8f 3c 12 0f bd bd
       -0.030180244 -0.060929056 0.017456371 -0.0923139
000290 96 00 6d 3b f0 13 97 3b 0f 76 c1 3d ec 71 d7 3d
       0.003616368 0.004610531 0.09446346 0.10519776
0002a0 76 a9 10 be 48 97 cc bd dd 3b 80 3d 64 d7 43 bd
       -0.14127144 -0.09989792 0.06261418 -0.047812834
0002b0 5a 24 d8 bd c7 57 06 3d 23 0c 98 3c 72 17 24 3d
       -0.105538085 0.032798555 0.018560475 0.04006142
0002c0 3f f3 95 bd fd 04 c3 bd c8 63 e0 3c 7a 15 b7 3d
       -0.07321786 -0.09522436 0.02739133 0.08939643
0002d0 3f 95 e3 bd 89 2f 6c 3c ac a2 f2 3c b6 1a f1 3b
       -0.11112451 0.01441563 0.029618584 0.0073579205
0002e0 da e3 49 3d 25 42 c5 3d 79 8f 60 3d 1d d5 b4 3c
       0.04928956 0.09631757 0.054824326 0.022074277
0002f0 61 dc c6 bd 8d 09 ee bd 8e 24 11 bc 1f 32 fb bd
       -0.09710003 -0.116229154 -0.008858813 -0.12265419
000300 30 db 50 3c 0d d5 a1 3c c3 fc 9c bc c2 11 a4 bd
       0.012747571 0.01975491 -0.019163495 -0.080111995
000310 04 51 9c bd 86 1b ce bd 4f 28 c2 3d 86 79 a3 3d
       -0.0763264 -0.100638434 0.094803445 0.07982163
000320 3b f5 89 3d 0e 6c 03 bd bd 49 6a 3c f0 32 25 3c
       0.06736227 -0.03208547 0.014299807 0.010082945
000330 e9 65 2e 3c b1 49 df 3c 50 0b 01 bc 6c 82 e4 bc
       0.010644414 0.027256818 -0.007876232 -0.027894221
000340 f8 ce 08 3d 94 79 c8 3b 70 1b 00 3e 11 79 ab 3d
       0.033400506 0.006118009 0.12510467 0.08372701
000350 6e 40 7e 3c 56 9a d2 bc 9d 7f e1 bc 99 d7 c4 bb
       0.015518291 -0.025708359 -0.027526671 -0.0060071466
000360 b6 ca 16 be 9c b2 a0 bd 32 1c 11 3c cd f3 22 3d
       -0.14725766 -0.07846567 0.00885682 0.039783288
000370 06 a8 0f bd ba 3d 86 3d f2 1a 0f be 7b 96 5b bd
       -0.03507235 0.06554742 -0.13975123 -0.053610306
000380 1f d3 16 bd 0c 09 e2 bb 50 77 b3 bd 09 50 01 be
       -0.036822435 -0.006898051 -0.087629914 -0.12628187
000390 9a 32 93 3b 8e 8b c8 3a 15 0a 38 3c e0 6b 8d 3c
       0.004492116 0.001530038 0.0112328725 0.017263353
0003a0 b3 e8 81 3c 53 6d e2 3d 6f 21 c3 3d ed 96 89 bd
       0.01585803 0.11056008 0.09527861 -0.0671824
0003b0 37 a1 12 bd 28 82 fc 3c b3 9e 44 3c e2 60 e9 bd
       -0.035798278 0.030823782 0.0120007275 -0.11395432
0003c0 3c 2c e6 3d 8b 5c 11 bc 01 a0 2d 3d 09 6d 02 3d
       0.11238906 -0.008872162 0.04238892 0.031842265
0003d0 88 15 9d bc 1f 9d ba 3c 70 dc f8 bb ac 83 8d bd
       -0.019175306 0.02278 -0.0075946376 -0.0690988
0003e0 3c d5 4b 3d c4 1f 16 bd a1 16 2f bc 59 2c e3 bd
       0.049763903 -0.036651388 -0.0106865475 -0.11092443
0003f0 42 4a c4 3c 39 1d 14 3d 11 71 f7 3c d2 60 bf bc
       0.02396119 0.03616068 0.030205281 -0.023361597

base_model.model.esm.encoder.layer.0.attention.self.key.lora_B.weight f4 [480, 2]
000000 cf e1 7e bc 13 53 af bd 6f fc f5 3d b3 fc ac bd
       -0.015556767 -0.08560767 0.120110385 -0.08446636
000010 84 af 34 bd 59 0a 96 3d 3d 48 14 3d 63 83 09 3c
       -0.044112697 0.073261924 0.036201704 0.008393141
000020 47 46 05 be f8 96 e4 3d 54 e0 55 bc d9 e9 d5 3c
       -0.1301509 0.111616075 -0.013053972 0.026112484
000030 5a 75 0c 3c b4 76 d4 bd bf c8 0f bc 7c a4 eb bc
       0.008572901 -0.10374203 -0.008775889 -0.028764956
000040 bf 65 38 bd ca c5 50 3d 1e dc 5e 3d 1c 3f d6 bd
       -0.045018908 0.050969876 0.05440914 -0.10461256
000050 da 97 d3 3c 79 c6 80 bd cd 88 43 bd b3 b1 9b 3c
       0.025829244 -0.06287856 -0.047737885 0.019005632
000060 a7 c0 1b bd 4a be 14 3d 51 c8 9d bd 61 53 0f bd
       -0.038025524 0.036314286 -0.07704223 -0.034991626
000070 be 31 23 3d af fc 1b bd b0 8d 74 bd e8 11 70 3d
       0.03984236 -0.038082775 -0.059705436 0.058610827
000080 ea aa 5a 3d 26 c9 1c bd 50 a8 46 3d 63 bb ac bd
       0.053385653 -0.038277768 0.04850036 -0.08434179
000090 32 5f aa 3d 3b 63 63 bd a2 f4 0d bd 2e e1 22 bd
       0.08318938 -0.055514555 -0.03465713 -0.03976553
0000a0 49 10 3c 3d 3e ba 34 bd 74 ea d1 3b 16 da 69 bd
       0.04591397 -0.044122927 0.006406123 -0.05709275
0000b0 95 2e 2c bd b6 65 69 3d 21 cc e5 3c 7c aa 99 bd
       -0.04203661 0.056981765 0.028051438 -0.075032204
0000c0 8b 3e 4f 3d ed 23 ec bc 5a 8c f8 bb c6 06 88 3d
       0.050596755 -0.028825724 -0.0075850906 0.06641917
0000d0 c3 c7 17 3e 38 fd 98 bc 90 87 1e be 67 26 2b 3a
       0.14822297 -0.018675432 -0.154814 0.0006528855
0000e0 9c 9e c5 bd d5 9a e9 bc df 0a d3 3d b9 cd dc 3b
       -0.09649393 -0.028516212 0.10304808 0.0067383912
0000f0 56 4b 95 bd 85 d0 e2 3b 39 bd b9 bd 47 e3 5a bb
       -0.0728976 0.00692183 -0.090692945 -0.0033399628
000100 bc fd 16 be 63 b4 52 3d 56 5c 96 bd 40 78 a4 bd
       -0.1474523 0.05144156 -0.073418304 -0.08030748
000110 e5 ab 55 3d 7c d9 b9 3d 98 0a 4e 3d 2b d1 bb 3d
       0.052165885 0.09074685 0.05030307 0.09170755
000120 9e 8f 35 3c dd 45 05 be 43 57 63 3d 50 68 a9 3b
       0.011081604 -0.13014932 0.05550314 0.0051699057
000130 ea f9 db 3d 59 db c7 bb fa 9d ee bd 5d c4 e3 bc
       0.10741027 -0.0060991463 -0.116512254 -0.027803594
000140 95 44 e5 3d d2 73 90 3b 4a 34 f2 3d cb f1 45 3c
       0.111947216 0.004408338 0.118263796 0.012081574
000150 b5 f7 d7 3d a2 9e 86 bc 34 e3 ce bd cb f3 44 bc
       0.10545293 -0.016433064 -0.10101929 -0.012021015
000160 9a 48 0a 3e 22 59 33 bc 0a 80 b8 bd 4b c4 67 bd
       0.13504258 -0.010946544 -0.090087965 -0.056583684
000170 63 0f 2f bd ce 1c 40 bd 15 26 4f 3d 9c ac c4 3d
       -0.042739283 -0.04690247 0.050573427 0.09603235
000180 57 05 b4 bd 6b f9 07 3d 11 b2 bf 3c 72 0d 9e bd
       -0.08790081 0.033196848 0.023400338 -0.07717408
000190 b5 41 ba bc 13 f5 82 bc 65 fe 9a bc 8b 44 9d bd
       -0.02273641 -0.015986001 -0.018920133 -0.07679089
0001a0 d3 fe 0e 3b 86 b6 04 3d 4c a6 3f bd 76 47 c0 3d
       0.0021819368 0.03240063 -0.046789452 0.0938863
0001b0 aa 96 f2 bc 43 a6 c5 bb a5 a5 75 bc ef 95 92 bd
       -0.029612858 -0.006031783 -0.014993106 -0.07157504
0001c0 1d c6 a3 bd e9 96 c9 3c 91 64 9d b9 de 1b ff 3c
       -0.079967715 0.024608092 -0.000300203 0.031141218
0001d0 2a 23 2f 3d 1e ca 3f bd 60 4e ff 3c ac 62 a2 bd
       0.042758144 -0.046823613 0.031165302 -0.079289764
0001e0 73 36 7e bb 0e 8b 89 bd 85 14 d1 3d 13 63 b3 bc
       -0.0038789778 -0.06715976 0.10208992 -0.021897828
0001f0 f7 f0 06 3d c3 65 b4 bd 71 35 48 bd 6a d8 ac bd
       0.032944646 -0.08808472 -0.04887909 -0.08439715
000200 31 95 b3 3d 3c 9f ac bd 11 0b 0f 3e 8c b0 f8 bd
       0.087686904 -0.08428809 0.13969065 -0.12143049
000210 31 e0 88 3d 23 f9 2b be cb 31 0a be bf 72 72 3d
       0.06683386 -0.16794257 -0.13495557 0.05919146
000220 8f 52 ac bd da 14 84 3d e1 94 99 3d ab 6c a7 3d
       -0.08414184 0.064492896 0.074990995 0.08175024
000230 0d ef 60 bc ee 33 3a 3d ca fa 49 3d 3d 0c 06 3d
       -0.013728869 0.04545968 0.049311437 0.032726515
000240 f3 f9 4f bd d1 fe c3 3c c8 b6 f6 bc d0 45 30 3c
       -0.05077548 0.023925217 -0.030116454 0.010758832
000250 28 1b 88 3d 61 21 15 bd 90 d1 8e 3c 92 51 31 3d
       0.06645805 -0.036408786 0.017433912 0.043290682
000260 75 b6 38 bd 2b d9 05 bd cb a0 93 bd 66 48 60 3d
       -0.04509588 -0.03267781 -0.07208403 0.054756545
000270 3a b2 14 3d 4c 9b 6d bc 0a 2a e5 bd b9 17 c0 3d
       0.036302783 -0.014502358 -0.11189659 0.09379525
000280 59 7b 7b 3d 6a 43 96 bd 39 b0 e7 bc fe a2 d6 3b
       0.06139693 -0.07337077 -0.028282272 0.006550192
000290 56 7a b9 bb bb 93 b6 3d 6f e7 a5 bc d1 a2 67 bd
       -0.0056603355 0.08914896 -0.020251958 -0.05655176
0002a0 25 de ab bb fc 52 0f bc 8b 90 40 bd 0c 26 56 3d
       -0.0052449876 -0.008747812 -0.047012847 0.052282378
0002b0 c5 17 88 bc cb c0 49 bd 7e d7 56 3c 27 7d bc 3c
       -0.016612897 -0.049256127 0.013112901 0.023008896
0002c0 8f 03 84 bb 37 62 99 3a 1a 57 8b 3d d3 e6 01 bd
       -0.0040287445 0.0011702244 0.06803723 -0.03171427
0002d0 68 08 db 3c 2a da 76 3d c6 53 3c 3e 60 f2 89 bd
       0.026737407 0.06026665 0.18391332 -0.067356825
0002e0 79 b5 15 bd 6c 5c ff bd 68 b2 26 be 9f 99 ee bb
       -0.03655002 -0.124688 -0.16278994 -0.0072814967
0002f0 d0 34 04 3c 5e 5f b9 bd 97 33 98 3d 29 79 80 bd
       0.008069232 -0.09051393 0.07431715 -0.062731095
000300 03 af 48 bc a7 1f 4c 3b cb 8d 88 bd e9 43 c4 bd
       -0.012248757 0.0031146796 -0.0666767 -0.09583265
000310 72 a2 63 3d 34 2e 97 bd f8 75 2f 3d a5 58 d2 3d
       0.05557484 -0.073818594 0.042837113 0.10270814
000320 8f cb ff bd c4 e6 d8 3c 6e 87 c0 bd 2c bb 24 3e
       -0.124899976 0.026477225 -0.09400831 0.16087025
000330 7e 8d 4b be 2c f7 cb 3d 6c 27 5d be f2 23 49 3e
       -0.19878194 0.09959254 -0.2159707 0.19642618
000340 73 36 74 bd 78 7b ef bd 63 91 98 3a 39 f0 a6 3c
       -0.05962224 -0.11693472 0.0011640008 0.020378219
000350 4c 1d 4a 3d 5a 0b 41 3c 67 b1 23 3d 7b e5 c7 3d
       0.049344346 0.011782492 0.039964106 0.09760567
000360 04 ad 12 bd 4d b5 f0 bc 30 b1 84 3d b2 1f d9 3c
       -0.03580953 -0.029383326 0.06479108 0.026504371
000370 07 3f c1 3c 7f 66 1b bd 79 f6 6d bd 2d 15 63 bd
       0.023589624 -0.037939545 -0.058096383 -0.055440117
000380 72 84 18 be f2 44 3a 3c 5c 8a 09 be 53 0a 08 bd
       -0.14894274 0.011368977 -0.13431686 -0.03321297
000390 19 70 f6 bc 59 6a 81 bd 5b 73 6d 3d 83 23 5a 3d
       -0.03008275 -0.06319112 0.05797134 0.053256523
0003a0 09 db 36 bd 6e 0a ba 3b bf ec df bd 24 6c 32 bd
       -0.044642482 0.005677513 -0.109338276 -0.043560162
0003b0 50 bf 13 3d 9a 8a fe bc b6 26 53 bd fe 44 e9 bb
       0.03607112 -0.03107195 -0.05155059 -0.00711882
0003c0 12 0a 57 3d 39 8e a5 3c f9 bf 05 3d c0 0e 4f bd
       0.05249984 0.020209419 0.032653783 -0.050551176
0003d0 d7 c6 ce 3d 73 4b 0d 3b 1a dd 2c be 1b 7d 43 3d
       0.100965194 0.0021559864 -0.16881219 0.04772673
0003e0 e0 9e 06 3e c2 b6 49 bd a4 3a 14 bd 0c c3 f2 bc
       0.13146544 -0.049246557 -0.036188737 -0.029634021
0003f0 a9 83 fa bd ea 81 88 3d 04 07 4b 3d d5 93 a5 bb
       -0.122321434 0.06665404 0.049567237 -0.0050530233

base_model.model.esm.encoder.layer.0.attention.self.query.lora_A.weight f4 [2, 480]
000000 df 68 8f be 4e ea b6 3e 70 1e 95 be 8c fa aa bd
       -0.28009698 0.35725635 -0.29124784 -0.08348569
000010 f7 ca ae be d5 08 3b be 43 40 3c be 1c 56 2e be
       -0.34139225 -0.18265088 -0.18383889 -0.17025036
000020 ae 86 a7 3c a6 6b 4b 3e 22 ce f7 bc 99 db ea bd
       0.020449962 0.19865283 -0.030249659 -0.11467666
000030 fe ec c2 3d 91 6c 92 bd d9 be a2 3e c9 a1 32 3d
       0.09517859 -0.07149614 0.3178623 0.04361132
000040 dd f8 81 3e 41 ee a9 3e 5d 80 71 3d 46 fc 65 3e
       0.2538518 0.33189586 0.058960307 0.22459516
000050 b0 e4 6a 3e f7 1a f0 3d 72 ce 03 be 5d a7 a3 3e
       0.229388 0.11723893 -0.12871721 0.31963626
000060 98 da 65 be 69 ad 46 bd 92 a9 e6 bd 26 99 a5 be
       -0.22446668 -0.04850522 -0.11262812 -0.32343405
000070 0b 9f 89 3e 99 19 16 be d9 96 fd 3c 2b ff 85 bd
       0.26879153 -0.14658202 0.030955719 -0.0654281
000080 06 81 34 3d 31 c9 3d be f2 9c 19 3e 96 a9 4a be
       0.04406836 -0.1853378 0.15001276 -0.19791254
000090 fb f3 8b 3e 78 e5 a1 be 39 d9 c5 3d 10 1e cd be
       0.2733458 -0.31620383 0.096605726 -0.40061998
0000a0 79 be c8 bc db 14 2a be d8 bc 67 3e 64 ad 20 be
       -0.024504887 -0.16609518 0.22630632 -0.15691143
0000b0 40 17 b8 3d 5f 38 a7 3d ca 15 8d 3b b4 ce d2 3d
       0.089888096 0.08165049 0.004305576 0.10293332
0000c0 17 ed a8 bd 91 e6 3a bd f0 d9 f3 bc 87 a0 41 bd
       -0.08248346 -0.04563004 -0.029767007 -0.04727223
0000d0 ff 36 07 3e 2a b5 89 3e 7a ef 5d 3c 32 9a 98 bd
       0.13204573 0.2689603 0.013545865 -0.074512854
0000e0 25 1b 66 be 81 b0 36 be 14 a3 a0 ba 77 c5 43 bd
       -0.22471292 -0.17840768 -0.0012255632 -0.04779574
0000f0 07 ee cc bd e4 72 d9 bd 5b 01 67 bd 5e 11 81 be
       -0.100063376 -0.10617617 -0.056397777 -0.25208563
000100 d2 fa 82 bb dd 89 77 3e c5 e2 a2 bd d3 2f 75 3e
       -0.0039971853 0.24173684 -0.07953409 0.23944025
000110 61 10 00 3d 58 0d 2d bd cd 7d 68 be 3d 65 f6 3d
       0.03126562 -0.042249054 -0.22704239 0.120310284
000120 1c 2d 8b be 25 62 7f 3e ee 2a 38 3e d6 17 83 3e
       -0.27182853 0.24939783 0.17985126 0.25604123
000130 d1 c3 88 be 6b fc dd 3d 43 14 e0 bc 4c 32 9d be
       -0.26711896 0.108391605 -0.027353412 -0.30702436
000140 81 21 b2 3e b8 28 11 be 46 e7 9a 3d 42 70 b9 3d
       0.34791186 -0.14175689 0.07563643 0.090546146
000150 e9 79 28 be e6 cb 6d 3e 56 e8 98 be 5e 65 ec bd
       -0.16452755 0.23222312 -0.29864758 -0.11542772
000160 17 00 a8 3d 3d 5e b8 3e 1b 4b 04 be 9f ae ec 3b
       0.08203142 0.36009398 -0.12919275 0.007222965
000170 1b f8 d7 3d e0 ed 90 be a1 c7 2f 3e 85 52 78 3d
       0.10545369 -0.28306484 0.17165996 0.06062557
000180 ad 42 54 be a2 b3 42 3e 41 7f 17 3e 96 b4 6b 3d
       -0.2072856 0.19013837 0.14794637 0.057545267
000190 69 56 9f be 49 cd 63 bd 6f fa 3c be 63 29 65 bd
       -0.31120613 -0.055615697 -0.18454908 -0.055947673
0001a0 6c 0b c5 bd 47 3c aa be 47 52 2d 3c 49 67 5e 3e
       -0.09621319 -0.33249113 0.0105786985 0.21719088
0001b0 92 f9 6c bd 7e b0 83 3e 91 5a 27 be 8f 77 3d be
       -0.057855196 0.2572059 -0.16343142 -0.18502639
0001c0 25 35 7f 3b 89 9e 2b be c7 00 2e be 71 cd 38 3d
       0.0038941589 -0.16759695 -0.16992484 0.0451178
0001d0 34 7e 80 be 96 47 b3 3e 9a e8 04 be 5e ed eb 3b
       -0.25096285 0.35015553 -0.12979355 0.0071999272
0001e0 c6 2f c1 3c 6c 34 66 be ae 1b 43 be ef 0d af 3e
       0.02358235 -0.22480935 -0.19053528 0.34190318
0001f0 5c c1 a9 bd d8 61 13 3e f4 3f f7 3b 79 38 51 be
       -0.082888335 0.14392793 0.0075454656 -0.20431699
000200 db c8 3e be 8c 6a 24 be 4f fb 9d ba 37 fc 61 be
       -0.18631308 -0.1605627 -0.0012053045 -0.22068869
000210 6b 1e fe bc 7f 2f 8c 3e 3b b5 c0 3d cd 09 f8 bc
       -0.031020364 0.27379987 0.09409567 -0.03027811
000220 ea 88 a9 bd 7b 74 3c bd 3d 6d d9 3d 16 ab 5c be
       -0.082780674 -0.046009522 0.10616539 -0.21549639
000230 e2 ae 82 3d 1f a3 ef 3c 5d c5 c9 ba f7 82 a0 3d
       0.063810125 0.029252587 -0.0015393902 0.078374796
000240 f7 e5 08 be 8e e8 07 3e 93 c8 a8 3e 88 c2 67 be
       -0.13368975 0.13272306 0.32965526 -0.22632802
000250 46 79 aa 3e 23 da 25 3e e7 9a 77 be 91 4c 95 bd
       0.3329565 0.16196494 -0.24180184 -0.072899945
000260 0b b8 82 be 4f 90 a6 3e 5a 4c 14 3e 2b 3e 8a 3e
       -0.2553104 0.32531974 0.14482251 0.27000555
000270 83 ef 28 be f5 cf f3 3d 52 6d 23 3c da 3a ef 3d
       -0.16497616 0.11904899 0.009974794 0.11681147
000280 99 bc 75 3e 46 15 02 3e 93 20 91 3d f9 74 3b bb
       0.23997726 0.12703428 0.07086291 -0.0028603657
000290 53 9e 1a 3e e4 e6 e0 3b 78 6c d7 3d da d7 0a bc
       0.15099458 0.006863462 0.10518736 -0.008474315
0002a0 94 15 95 bd fd 10 6c 3e b2 fd 67 be 8a f8 03 be
       -0.07279506 0.23053356 -0.22655371 -0.12887779
0002b0 bc ca 2f be d1 d0 ea 3d 7a 60 3c be 96 3f 6d 3e
       -0.17167181 0.1146561 -0.18396178 0.23168787
0002c0 c4 a5 97 3e 93 1a 76 3d 67 15 cf bd 27 d5 74 3b
       0.29618657 0.060083937 -0.10111504 0.0037358494
0002d0 25 4c 9f 3e 2f d2 bc be e0 18 1c 3e 99 38 64 3c
       0.3111278 -0.36879107 0.15243864 0.01392951
0002e0 98 20 7f 3e 2b 18 9b be b4 c5 81 be 59 2a 11 3e
       0.24914777 -0.30291876 -0.25346148 0.1417631
0002f0 4b bd 60 be d4 d1 9f 3d 6b 22 62 3e 8f 4b 85 3e
       -0.2194721 0.078036934 0.22083442 0.2603421
000300 e2 3d 6c 3e 4a 67 1b be 23 81 d0 bd 18 89 c5 bd
       0.23070481 -0.1517612 -0.10180881 -0.09645289
000310 87 19 66 bd 8f 3a 48 be 98 70 07 be e2 6e a0 3d
       -0.05617669 -0.19553588 -0.13226545 0.07833649
000320 49 bd 83 be 59 d3 8c 3e ae 4b 2f be 86 95 92 be
       -0.2573035 0.27504995 -0.17118713 -0.28629702
000330 95 c9 a1 3d 64 82 24 bd 3d 44 26 3e ad 4c af be
       0.07899777 -0.040163413 0.16236968 -0.34238186
000340 aa 07 86 be 3e 04 a0 bd 3a b4 9b 3e ce b1 49 bd
       -0.26177722 -0.07813309 0.3041094 -0.049241833
000350 bc 33 b2 be 7a ca 8c 3e 0d 72 6b 3d 4d b0 99 bd
       -0.34805095 0.27498227 0.057481814 -0.0750433
000360 d4 44 13 3c 78 25 58 3e 29 6a 9c 3e 41 28 9b 3e
       0.008988578 0.21108043 0.30549744 0.3030415
000370 ba d9 61 be 02 41 13 3d b4 2f 47 3d 61 77 1b be
       -0.22055712 0.03595067 0.048629478 -0.15182258
000380 79 53 ab 3d 47 b3 53 be 6b da 9f bd 44 56 20 3e
       0.083655305 -0.20673858 -0.07805332 0.15657908
000390 be 47 70 3e 24 29 95 3e a0 8c 57 bd 4d 7a 96 be
       0.23464867 0.2913295 -0.052624345 -0.29390183
0003a0 99 04 b2 3e 5d 36 0c 3e 49 b1 54 3e 3f c5 99 be
       0.34769133 0.13692613 0.20770754 -0.300333
0003b0 19 8a 14 be a4 08 cd 3d b0 45 c2 3d ca fa d3 3c
       -0.14505805 0.10011414 0.09485948 0.025876421
0003c0 9b c0 84 bb 08 93 b5 3d 4e 1a 37 be db dd b3 be
       -0.0040512807 0.088659346 -0.17881128 -0.351302
0003d0 89 00 88 3e fb 6d 58 be 2b 9c 12 be e8 f4 51 be
       0.26562908 -0.21135704 -0.14317386 -0.2050358
0003e0 d3 38 b8 3a 68 c1 6a 3c 89 28 90 bc 13 60 18 bd
       0.0014055021 0.014328338 -0.017597454 -0.037201
0003f0 e6 78 00 3e 55 e4 6a 3d 14 3f 74 be a5 a3 69 3e
       0.12546119 0.05734666 -0.23852187 0.22816332

base_model.model.esm.encoder.layer.0.attention.self.query.lora_B.weight f4 [480, 2]
000000 c6 9b ae bd ea 16 b9 bc f0 2a cb 3c a6 19 cd 3d
       -0.08525805 -0.022593934 0.024800748 0.10014658
000010 b9 a5 06 3d 98 3e 1c 3d 0e 4a db bc 4d c9 45 bd
       0.03287289 0.03814563 -0.02676871 -0.04828768
000020 74 b2 86 bc d6 95 71 bb 89 59 94 3d 64 94 ea 3d
       -0.016442515 -0.003686299 0.0724364 0.114540845
000030 35 9d 70 3d 3e 70 28 3d 82 7f fd 3d 3f bd 13 3d
       0.058743674 0.041122667 0.12377836 0.03606915
000040 73 c2 54 bd 2f 3e 05 be 12 15 6e bc 36 75 dc 3d
       -0.051943254 -0.13012002 -0.014531391 0.10764544
000050 51 26 c0 3c 76 c8 cf 3d d7 12 9f bd dc 13 4a bd
       0.02345577 0.10145657 -0.07767265 -0.049335346
000060 26 12 94 3c 85 38 80 bd 1a 60 42 3e 97 ca f5 3d
       0.01807506 -0.0626078 0.18981972 0.120015316
000070 7e d6 e0 3c 7b 2f fa bc ad 84 45 bd 22 fe 83 3c
       0.027446028 -0.030540219 -0.048222233 0.01611239
000080 2a 5e dd 3d b1 ae d0 3d dd d0 bb 3a d4 b8 ba 3d
       0.10808976 0.1018957 0.0014329214 0.091172844
000090 53 5d 66 bd 0e 39 0f 3d 22 ae 69 bd 38 d8 2a be
       -0.056241345 0.03496652 -0.05705083 -0.16684043
0000a0 74 29 8e 3c 25 09 81 3d dc d3 a4 bd 44 aa b8 3d
       0.01735375 0.06300572 -0.080482215 0.090168506
0000b0 34 b9 22 bd 9a 10 1c be 38 0e bf 3d e8 5b b3 3d
       -0.039727405 -0.15240708 0.09328884 0.08757764
0000c0 32 1e a5 3d bd e5 38 bc 8e 26 c3 3d 0a a6 de 3d
       0.080624 -0.011285243 0.09528838 0.10871513
0000d0 03 53 a3 3c 94 70 65 bd 08 98 75 3d 5b a9 bb 3d
       0.019937044 -0.056015566 0.05995944 0.09163161
0000e0 6c ed e9 3b 24 22 1f 3e 74 77 ce bd d0 87 08 be
       0.0071388986 0.15540367 -0.100813776 -0.13333058
0000f0 d5 8d 39 3d b0 1b 56 3d fc 3b d6 3c 35 46 8a 3c
       0.045301277 0.0522725 0.02615165 0.01687918
000100 82 e5 47 bd c5 30 10 3c 51 5a 53 bd 57 bc 83 bd
       -0.04880286 0.00880069 -0.051599804 -0.06432407
000110 e1 d0 33 3d 03 3d ac 3d 66 59 1a 3d 24 83 85 3d
       0.043900374 0.084100746 0.037682913 0.06519154
000120 a3 78 bb 3d f4 32 95 bb a5 fd 5b bc fc 8d e0 bd
       0.09153869 -0.004553193 -0.013427173 -0.10964581
000130 c2 ac 50 bc f4 36 12 be 03 47 a3 3b 9f 09 25 3e
       -0.012736501 -0.14278775 0.0049828305 0.16116951
000140 77 b9 a9 bd 78 50 c2 bd dd 5f 73 3d fb 0c af bc
       -0.08287328 -0.094880044 0.059417594 -0.021368494
000150 ad 65 a5 bb 9f 6a ea bc 46 cc 22 bc 24 85 71 3c
       -0.005047521 -0.028615294 -0.009936398 0.014741216
000160 32 a4 19 3b 19 c7 b9 3b b5 09 8e bd 39 9b 80 bd
       0.0023443815 0.0056694862 -0.06935445 -0.06279606
000170 2c b4 05 bd bd 19 7c bd f9 f1 2f 3d b5 3e 99 3d
       -0.03264253 -0.061547983 0.042955372 0.074826635
000180 a4 fa 27 bd 1c 37 9c bd e8 5b 8c bd a8 ed 08 3d
       -0.041010514 -0.07627699 -0.06853467 0.03342977
000190 5c 91 1a 3c e5 7e 04 3e 0b 9d b2 3c a8 25 7f bd
       0.00943407 0.12939031 0.0218034 -0.06229177
0001a0 8f 2b d3 3d 18 dd 93 3c 8c b3 43 bd bc 81 ea bd
       0.103110425 0.018049762 -0.04777865 -0.11450526
0001b0 a5 35 6a bd f0 98 2c 3e 01 e6 85 3d 7c 14 bc bc
       -0.057180066 0.16855216 0.065380104 -0.022958986
0001c0 7d 17 1f 3d 98 08 ee bd 29 26 be 3d 14 c6 5c be
       0.03884076 -0.11622733 0.09284622 -0.21559936
0001d0 b0 6a f9 b9 49 a5 31 be 77 f2 8a bc 51 5e 65 3d
       -0.0004757247 -0.17348208 -0.01696132 0.05599815
0001e0 d9 d9 5c 3d 79 f6 33 3d 30 c6 31 3d 3f d1 de bc
       0.053918693 0.043936227 0.043401897 -0.027199386
0001f0 5f 43 70 3c 14 be 89 3d 4a 5a 69 3d f9 41 94 bc
       0.0146645 0.06725708 0.056970872 -0.018097864
000200 e3 2d 97 3a 6d e8 7b 3d 62 5e 26 bc 3b ca f5 3c
       0.0011534061 0.061500955 -0.010154339 0.030003658
000210 5e db aa bd 9a 82 d7 bc 3a dc f2 bd 7d 15 3b 3b
       -0.08342622 -0.026307393 -0.11858411 0.0028546744
000220 3d 7f 13 bd 43 b5 3e bd 48 0b 86 bb 75 65 be 3c
       -0.036010016 -0.046559583 -0.0040907003 0.023241738
000230 9c 99 70 3d ec 72 8e 3b 4f 35 3b 3c d3 81 29 3e
       0.058740243 0.004347196 0.011426284 0.1655343
000240 73 49 02 3d 1a b0 b5 bc 2d 8a a5 bc b8 c1 74 bd
       0.031808328 -0.022178698 -0.020207489 -0.059755057
000250 6d 59 3b 3d 80 43 22 3d 94 ab 79 3d a8 e6 93 3c
       0.04573958 0.039615154 0.060954645 0.018054321
000260 03 49 35 bd 9f a1 d8 bd cf da 96 bd 94 7e 1f bd
       -0.044259083 -0.10577702 -0.07365953 -0.038939074
000270 3a f3 fe 3d 65 ca 3f 3d b8 83 14 be 15 a8 1c 3e
       0.124487355 0.046823878 -0.14503372 0.15298493
000280 c4 d4 a3 3d 57 ba 16 bd cc f7 89 bd 14 b5 41 3d
       0.07999566 -0.0367988 -0.06736717 0.04729183
000290 f2 99 73 bd 4c 6d 92 bc 97 be f9 3d 82 a3 18 3d
       -0.059472986 -0.017874382 0.12194555 0.03726531
0002a0 9f 6d 20 3d 47 6b c8 bc 8a cf 4e bd fe f5 ae bd
       0.039167043 -0.024465216 -0.050490893 -0.08543013
0002b0 ee 54 76 3b 9f 68 be 3c a7 e5 a6 3c 15 60 ba 3c
       0.0037587243 0.023243247 0.020373179 0.022750894
0002c0 70 69 6b bd 49 a6 98 bb 9e 6c 6c 3c a1 a9 09 3d
       -0.0574736 -0.0046584946 0.014430193 0.033609036
0002d0 1d f6 6b bc 41 7c 21 bc 21 c0 50 3d 5e 48 56 bb
       -0.01440194 -0.009856285 0.05096448 -0.0032696943
0002e0 56 0e 44 3d 60 70 c8 bc 67 1c b0 3d c3 11 99 3d
       0.047865234 -0.024467647 0.08599167 0.07474091
0002f0 cf ea 9f 3d ac 68 93 3c ed 01 a3 bd f0 49 25 3e
       0.07808458 0.017994247 -0.07959352 0.16141486
000300 18 f5 e3 bc f9 51 20 3b db 81 17 3d 74 2f 0a bd
       -0.02782683 0.0024462922 0.036989074 -0.03373666
000310 8f a1 92 3c 2d 44 e0 bc ce f2 c0 3d 27 d8 2d 3d
       0.017899303 -0.027376259 0.09421311 0.042442467
000320 bc b8 2f be 6e 6e 21 3d 9e f5 4c 3b 95 74 51 3d
       -0.17160314 0.039411955 0.003127433 0.051136572
000330 3d b8 80 3c 32 89 1c 3d a3 02 a0 bd db b6 f1 bd
       0.015712852 0.038216777 -0.07813003 -0.11802455
000340 f8 7e 76 3c f1 7d 3e 3e 0f d6 9d 3c cb ba 9c 3d
       0.01504492 0.1860273 0.01926711 0.076528154
000350 60 60 82 bd 6e 21 46 be b0 bd 2e be 9f f2 ff bd
       -0.06366038 -0.1934869 -0.17064548 -0.12497448
000360 a5 d0 ac ba 0f 83 85 3d 1c 16 55 3e 70 20 b8 3d
       -0.001318474 0.06519138 0.20809215 0.08990562
000370 4e 95 ca bd 29 52 a6 bc 03 52 4e 3d e6 18 30 3d
       -0.09891759 -0.020302849 0.05037118 0.042992495
000380 c6 63 d8 3d fb 75 1c 3d 1a aa a5 3d b7 2e bd bd
       0.10565905 0.038198452 0.08089085 -0.09237426
000390 fc 9b 12 bd db 36 4b bd 95 57 c1 bc 11 38 29 be
       -0.03579329 -0.04961286 -0.023601333 -0.16525294
0003a0 73 da af bd d8 09 29 3e f2 91 48 3d 5b b8 5d bc
       -0.08586588 0.16507661 0.04896731 -0.013532723
0003b0 6a 20 5b 3d 02 80 88 3e 19 f2 1d 3d a3 27 51 3e
       0.05349771 0.26660162 0.03856096 0.20425276
0003c0 d0 4c e7 bc e1 2d 3e bd 3f dd 40 3d 92 d8 9b 3c
       -0.02823487 -0.046430472 0.047085997 0.019024167
0003d0 f8 3d fa 3d 0d 88 9d 3d 85 90 c9 3d 3d 9f b3 3c
       0.12218851 0.07691965 0.09842018 0.021926517
0003e0 a7 d9 e3 bc 7f d7 fa 3d 12 88 b7 3c 84 76 16 3e
       -0.027813746 0.12248134 0.02240375 0.14693648
0003f0 98 a8 cc bc 76 84 e6 bd f2 80 dd 3c f6 73 c5 bd
       -0.024982736 -0.11255734 0.027039025 -0.096412584

base_model.model.esm.encoder.layer.0.attention.self.value.lora_A.weight f4 [2, 480]
000000 29 93 39 3e 69 0a 3f bd d6 d4 39 3e 60 9a dc bd
       0.18122543 -0.046640787 0.18147597 -0.10771632
000010 a3 b4 b5 bd 86 26 9a 3d 09 27 bd bd ee bc 01 3e
       -0.08872344 0.07526879 -0.09235961 0.12669727
000020 77 03 30 3e 6b 8a c7 bd b0 d0 36 be 63 15 03 3e
       0.17188822 -0.09743198 -0.17853045 0.12801127
000030 5d ca 8b 3d 4c 3b f4 3c 03 28 42 be 1b 60 52 bd
       0.06825707 0.029813431 -0.18960576 -0.051361185
000040 13 c8 a1 3a 7b 9d 86 bd 74 5b 94 3d fd be 38 be
       0.0012342952 -0.06573006 0.07244006 -0.18041606
000050 f9 30 39 be 63 0c c5 3c ff f8 06 3e 26 f5 38 be
       -0.18085088 0.024053758 0.13180922 -0.18062267
000060 60 8d b5 bd d7 74 35 bd 3b ac a6 3d cc 8d bf 3d
       -0.08864856 -0.04430088 0.08138319 0.093532175
000070 f7 6c 32 be 5d 74 39 3e 79 58 8a 3c fd 1c 83 3c
       -0.1742438 0.18110795 0.01688789 0.016005034
000080 5a 5b 21 3d a1 c6 47 3e e4 b9 82 bb 06 fd 15 be
       0.03939376 0.19509365 -0.003989445 -0.14647302
000090 e5 db 36 be e3 bc 3f 3e 23 0c 37 3d 96 58 8c bd
       -0.1785732 0.18724398 0.04468931 -0.06852834
0000a0 d5 e9 51 bd eb 15 9f bd c9 4b cb 3c c7 93 2b bc
       -0.05124839 -0.077678524 0.02481641 -0.010472245
0000b0 ae dd 38 be 76 8a 2c 3d fc e6 48 3e 90 f5 46 3e
       -0.18053314 0.042124234 0.19619364 0.19429612
0000c0 86 57 2f 3d bf 7f 82 bd d8 5c 23 be b2 0f 1f be
       0.04280808 -0.06372022 -0.15953386 -0.15533331
0000d0 0b a1 2a 3c 0f 71 ab bc c5 ef 16 be 77 41 e9 3c
       0.010414372 -0.020927934 -0.14739902 0.028473599
0000e0 89 73 33 3e 20 e7 ce bd 60 8b 32 be 3a 33 16 3d
       0.17524542 -0.10102677 -0.1743598 0.036669947
0000f0 d0 d4 58 bd d7 16 3d be 4a 04 28 3e a7 28 3f 3e
       -0.05293733 -0.18465744 0.16407886 0.18667851
000100 22 f0 9d bd 86 a6 0b be 9c 2b 91 bd d6 ae 38 be
       -0.07711817 -0.13637742 -0.07088396 -0.18035445
000110 f5 83 5d 3c 60 d4 4a 3d 17 5e d3 3d 5d 78 ef bd
       0.013520231 0.049518943 0.103206806 -0.11692879
000120 b0 36 38 3e 9d 67 29 3e 4e cb fa 39 a5 93 dd bd
       0.17989612 0.16543432 0.0004783519 -0.108191766
000130 3f 16 00 3d dd 56 37 be 45 0c 9a 3d 83 f1 08 bd
       0.031271216 -0.1790423 0.075218715 -0.03343345
000140 56 30 a9 3d d6 25 be 3c 58 9a 03 3d c8 2d d4 3b
       0.082611725 0.023211401 0.032129616 0.006475184
000150 db d9 3b 3e 1a 4a 11 be 63 84 37 3e d6 1e fb bd
       0.18344824 -0.14188424 0.17921595 -0.12261741
000160 76 c6 1f be be 1e 40 be 0f ce 8a bc 55 e2 4b be
       -0.1560305 -0.18761727 -0.01694396 -0.19910558
000170 4f d4 af bd 02 c5 3a 3e 06 cc 83 ba f3 cf c0 3d
       -0.085854165 0.18239215 -0.001005531 0.09414663
000180 c8 6d 33 3e 34 32 51 be 1a f1 37 be 09 58 c0 bc
       0.17522347 -0.20429307 -0.17963067 -0.023479478
000190 79 d0 5f bc ae ae 5f 3d ce 72 55 bb e7 51 f0 3d
       -0.013660544 0.054609947 -0.003256965 0.11734372
0001a0 d8 4e 24 be c1 9e 3a 3e 9d 56 e1 bd 2b cb 79 ba
       -0.16045702 0.18224622 -0.11002848 -0.00095288706
0001b0 7c 19 1a 3d b9 61 05 be 3c 09 e9 bb d6 ee a4 bd
       0.03762196 -0.1302556 -0.0071116965 -0.08053367
0001c0 9a cc 70 3d 29 c2 0b 3e 7a dc 0c be 57 ba 71 bd
       0.058788873 0.13648285 -0.1375598 -0.0590156
0001d0 94 a9 18 3e 54 66 45 be d3 64 1d be 37 d7 6f bd
       0.14908439 -0.19277316 -0.15370493 -0.058554854
0001e0 de 67 04 3d b9 ec 38 3e d2 09 36 3e b6 31 f2 3c
       0.032325618 0.18059053 0.17777184 0.02956472
0001f0 23 fc a5 bd 94 21 0e be cf 6f b5 3b 72 a4 23 bc
       -0.08104732 -0.13879997 0.0055370103 -0.009987937
000200 e5 36 2e be 2c bc 24 3d 3a 9e f4 bd 36 cb 83 bd
       -0.17013128 0.040218517 -0.11944242 -0.06435244
000210 28 b9 48 b9 50 63 2c be 5d 5b 5c 3d 38 bf c3 3d
       -0.00019142462 -0.1683476 0.05379807 0.095579565
000220 72 7b 4d be 7e 3f 7a bd 57 59 b0 3d 40 c5 37 3e
       -0.20066622 -0.061095707 0.0861079 0.17946339
000230 00 f3 3b 3e 8a 36 99 3d 73 84 ea bd 35 3d 5c 3d
       0.18354416 0.074811056 -0.11451044 0.05376931
000240 e0 c5 fd 3d 99 6f 83 bc ad a2 50 be 00 a6 77 3d
       0.12391257 -0.016044425 -0.20374556 0.060461044
000250 9d 7a 28 3d af 42 05 3e 07 c8 5b 3d 77 bc f7 3d
       0.041132558 0.13013719 0.053657558 0.12096494
000260 11 3d cf 3c 7d 5f d0 bd 99 83 32 3e 78 62 be bb
       0.025297673 -0.10174463 0.17433013 -0.0058100782
000270 50 a6 4a bd 46 4a 0a 3d 33 05 42 3e 7b 3c 2d 3e
       -0.049475014 0.03376224 0.18947296 0.16917603
000280 84 fc 3c be 36 d0 cc 3c 5c d7 9e 3d 7f 7a fc bd
       -0.18455702 0.025001626 0.0775592 -0.12328052
000290 e1 8b 32 be d7 f4 31 be c7 28 99 bc 7d e5 10 3e
       -0.17436172 -0.17378555 -0.018696202 0.14150043
0002a0 79 35 4c be 78 22 2b 3d 04 4c b0 bc ec 28 53 be
       -0.19942273 0.04178092 -0.021520622 -0.20621079
0002b0 90 b5 11 3e 99 db a0 3c a3 ff 46 3d 43 19 17 3e
       0.14229417 0.019635962 0.048583638 0.1475573
0002c0 80 31 3b be bc 2d 38 3e 38 aa f5 3c f0 f1 32 3e
       -0.18280602 0.17986196 0.029988393 0.17475104
0002d0 16 91 3e be 56 82 45 3e 4c 76 2a 3e 3e a4 9d 3c
       -0.18610033 0.19288 0.16646689 0.019243356
0002e0 5a 2e 1c bd 3c 37 3b 3e 84 c8 3d 3e b9 70 a6 3d
       -0.03813014 0.18282789 0.18533522 0.08126969
0002f0 dd 7d 30 3e 93 72 38 be d7 60 76 3d 2b a3 3a be
       0.17235513 -0.18012457 0.060150947 -0.18226306
000300 f8 ba 35 be 98 1e 52 bd 22 29 de bc ed ac 40 3e
       -0.17747104 -0.051298708 -0.027119223 0.18815966
000310 56 8a 15 be 88 ab 28 3d 1c dd 30 3e 21 e1 da bc
       -0.14603552 0.04117921 0.17271847 -0.026718678
000320 f9 42 e5 3c 7a cd 3f be 40 c7 34 3e a1 aa 3a 3e
       0.027986037 -0.18730727 0.17654133 0.18229152
000330 25 1f 43 3d 1a 5f 36 3e 21 c7 78 bd 62 bd 3e 3e
       0.047637124 0.17809716 -0.06073678 0.18626931
000340 34 39 19 3c b4 21 a5 bd 79 e2 a1 bd 14 45 bb 3c
       0.009352017 -0.08063069 -0.07904524 0.022860087
000350 c9 02 38 3e 92 bd 39 be 7f a1 af 3c db d4 6b ba
       0.17969812 -0.18138722 0.021439312 -0.00089962565
000360 b0 a1 af 3d 80 8a bc bd f3 51 53 be 87 18 12 be
       0.08575761 -0.09206104 -0.2063673 -0.14267169
000370 aa ec 22 bd d7 41 09 be 67 b2 85 3d 7e c8 07 be
       -0.03977648 -0.13404022 0.06528168 -0.13260075
000380 4d f7 cd 3d 8e 5c 02 bd e9 81 32 3e 10 ef 70 3d
       0.100569345 -0.03182655 0.1743237 0.058821738
000390 d6 dd 10 bd 84 88 30 be 7d 8c 1a be d0 d3 3a 3e
       -0.03536781 -0.17239577 -0.15092655 0.18244863
0003a0 fa 5c c9 bd e1 6f 04 bd e2 f9 91 3d 33 30 2e 3e
       -0.09832187 -0.03233326 0.071277395 0.17010574
0003b0 2e a0 5f bd a2 e3 fb bd 46 fe 3c 3e 97 9b a7 bd
       -0.05459612 -0.12299277 0.18456373 -0.08183973
0003c0 1d f5 14 be 54 0e 0a be 13 3c 47 bd 92 4e 31 bd
       -0.14546628 -0.13482028 -0.048641276 -0.04328782
0003d0 23 81 3e be 14 98 2b 3d 6c c2 38 3e b7 44 43 be
       -0.18603949 0.04189308 0.18042916 -0.19069181
0003e0 62 35 fa bd fe 1d 66 3d 59 cf d5 3c 51 d5 eb 3d
       -0.12217213 0.056180947 0.026099848 0.11515296
0003f0 89 a2 07 3d cb b1 33 be 7a e3 4d 3d 42 32 39 be
       0.03311399 -0.17548291 0.050265767 -0.18085578

base_model.model.esm.encoder.layer.0.attention.self.value.lora_B.weight f4 [480, 2]
000000 3f b9 cb bc 92 82 fd 3b 57 6f 17 3b a7 5f 22 bc
       -0.024868606 0.0077365125 0.0023107135 -0.009910501
000010 69 b9 0f 3d 57 5d 87 bd 90 d8 58 bb 45 8d 63 bb
       0.03508893 -0.066096 -0.0033088066 -0.0034721654
000020 e9 19 61 bd 45 5c 6b 3d d3 31 b5 bd 89 48 92 3d
       -0.05495635 0.057461042 -0.08847394 0.07142741
000030 d9 44 fe bc ef a5 61 3c d6 41 88 3d 33 b7 83 bd
       -0.031038688 0.013772472 0.06653182 -0.06431427
000040 73 2f 0e bd b4 a8 1d 3d 11 13 5c bd dc 73 90 3d
       -0.03471322 0.038490966 -0.05372912 0.070533484
000050 05 e5 d2 bd 61 0b eb 3d ad 16 1a bd 38 6a 35 3d
       -0.10297588 0.1147678 -0.03761928 0.04429075
000060 2d 6e f9 bb f0 29 d1 ba 6a 3d f4 bc 8e ca 11 3d
       -0.007612011 -0.0015957933 -0.02981444 0.03559356
000070 97 40 8c 3d 09 57 6b bd dc 76 ab bb 20 2c e6 3b
       0.06848257 -0.05745605 -0.005232675 0.007024303
000080 35 98 66 bd 49 d0 04 3d 10 70 00 3d 78 50 0e bd
       -0.0562975 0.0324252 0.03135687 -0.03474471
000090 08 a6 0b 3d 17 a8 7c bc 9e eb b8 bd 21 c7 ce 3d
       0.034093887 -0.015420935 -0.090293154 0.100965746
0000a0 25 07 b3 bd fe 33 95 3d ce 7e bd 3d f3 a2 b1 bd
       -0.08741597 0.07285307 0.09252702 -0.08673658
0000b0 f9 04 a3 3d 94 90 ac bd 38 f6 13 3d fa 3b 2f bd
       0.07959933 -0.084260136 0.036123484 -0.042781807
0000c0 3e 05 58 3c d6 89 91 bb 26 eb dd bc ff c4 07 3d
       0.013184844 -0.00444148 -0.027089667 0.033146854
0000d0 c2 81 2b be 4a 5d 15 3e 24 85 61 bd 2b c3 31 3d
       -0.16748717 0.14586368 -0.055058613 0.043399017
0000e0 b0 e6 29 be 71 02 2f 3e 30 0e c9 3c dd 2d 43 bd
       -0.16591907 0.17090775 0.024542898 -0.04765116
0000f0 a9 cc 79 bd 07 7f a6 3d 90 d1 84 bc 59 3c a2 3c
       -0.060986195 0.08129697 -0.016213208 0.019804167
000100 d3 4b 81 3d bb fa 7f bd bd 53 9a bc 4e 36 06 3b
       0.063132904 -0.062494975 -0.018838758 0.0020479145
000110 d7 1e aa 3d 68 97 b2 bd 47 be 7f 3d b6 36 82 bd
       0.083066635 -0.08720285 0.062437322 -0.063580915
000120 11 81 4b 3d 85 da 04 bd 62 90 50 3d c8 70 4e bd
       0.049683634 -0.03243496 0.050918944 -0.050400525
000130 51 76 1d 3d a7 74 2e bd 52 63 0e bc bd c9 2f 3c
       0.038442913 -0.042591717 -0.008690672 0.0107292505
000140 02 10 57 3b d7 c6 8a bc 42 f1 28 3d 38 49 4b bd
       0.0032815938 -0.016940517 0.041245706 -0.049630374
000150 20 75 ce 3c 93 b0 a9 bc 6d 08 6a 3d f6 b2 3c bd
       0.025202334 -0.02071408 0.05713694 -0.046069108
000160 60 7e 25 bd 21 e8 00 3d a2 c1 a9 3c 02 b0 ac bc
       -0.040403724 0.031471375 0.020722214 -0.02108002
000170 05 0a 30 bc 26 86 2b 3c cb a9 ed 39 12 3e 9e 3b
       -0.010744576 0.010468995 0.00045330668 0.0048291767
000180 78 d4 c8 bd 68 33 d3 3d 74 48 ab bc 90 d1 0e 3d
       -0.0980615 0.10312539 -0.020908572 0.034867823
000190 cf 17 2b bd 0b 57 42 3d 1b e5 db 3d 76 ca a5 bd
       -0.041770753 0.047446292 0.10737058 -0.08095257
0001a0 cb 68 7d 3d 10 f2 2d bd 95 90 2f 3d c6 ca 2d bd
       0.061867516 -0.042467177 0.042862494 -0.042429708
0001b0 e8 c4 a5 3d 9d 8a b1 bd bb 0a 02 be 23 3a f8 3d
       0.080941975 -0.086690165 -0.12699406 0.12120464
0001c0 a1 2a 41 bd d4 ae 0f 3d 68 66 f5 ba a5 3d 7c bc
       -0.047159795 0.03507884 -0.0018722536 -0.015395557
0001d0 45 62 bb bd c4 c5 a6 3d 83 f3 6a 3d da a8 88 bd
       -0.09149603 0.081431895 0.057361137 -0.06672831
0001e0 f9 84 08 3e 10 06 02 be 63 19 51 3d 61 fd 58 bd
       0.13331975 -0.12697625 0.0510496 -0.052976016
0001f0 98 50 20 bd f9 3c 4d 3d b2 c9 b3 bd b3 08 bd 3d
       -0.03913936 0.050106976 -0.08778705 0.09230175
000200 cb da cb 3d b6 a9 d6 bd 59 15 fb 3d 17 ed ec bd
       0.09953841 -0.104815885 0.12259931 -0.11568659
000210 97 ca 2f 3d 14 dd 21 bc 59 19 87 3c 8d 57 59 bc
       0.042917814 -0.009879369 0.016491579 -0.013265503
000220 41 e9 a5 bc 7d b9 1d 3c b7 0e 00 be 81 8b eb 3d
       -0.020252826 0.009626743 -0.12505613 0.11501218
000230 85 85 cb 3d 30 1b ca bd 70 98 99 bd d4 2b 36 3d
       0.09937576 -0.09868467 -0.07499778 0.04447539
000240 93 27 76 bc 75 63 de bb b0 7e 94 bd 65 80 57 3d
       -0.015024084 -0.0067867585 -0.07250726 0.05261268
000250 e6 e9 53 3d f7 1f 62 bd cc 10 fe bc 72 a1 6b 3d
       0.051736735 -0.055206265 -0.031013869 0.057527013
000260 2b 30 22 bc fd b9 af bc 0b 71 69 3d 03 de 6c bd
       -0.009899179 -0.02145099 0.05699257 -0.057828914
000270 91 97 0b 3e 15 62 fb bd 78 90 a8 bd 45 da 95 3d
       0.13632037 -0.12274567 -0.0823068 0.07317022
000280 23 eb 71 bc 71 55 c5 3b 62 d7 10 bd 13 8d bd 3c
       -0.014765534 0.0060221483 -0.035361655 0.023138558
000290 b2 a1 29 bd ad 39 14 3c cd 07 2f bd 27 f7 f9 3c
       -0.04141397 0.009046954 -0.04273205 0.03051336
0002a0 1a 64 20 bc 7d fe 82 3d a1 a1 04 bd 27 c1 7a 3c
       -0.009789491 0.06396196 -0.032380704 0.01530484
0002b0 7a eb 15 bb 22 ec 6d 3c 8f f9 b2 3d b4 ed a6 bd
       -0.002287595 0.0145216305 0.08739006 -0.08150807
0002c0 53 6d 65 3d be 39 43 bd 36 c6 f8 bd 75 c8 03 3e
       0.056012463 -0.04766249 -0.12147181 0.12869437
0002d0 56 8e 71 3d 66 41 76 bd d8 3c 3d bd 38 97 7b 3d
       0.058973633 -0.060120963 -0.046200603 0.06142351
0002e0 83 d3 d6 bd 08 56 df 3d b0 e7 f1 bc 38 b0 e5 3c
       -0.104895614 0.10905081 -0.029529423 0.02803813
0002f0 86 71 98 bd d8 2f 50 3d 39 b9 4f 3e 73 68 5d be
       -0.07443528 0.050826877 0.202855 -0.21621875
000300 38 01 dd 3d d1 4c de bd ab 31 b8 3d c2 cf 99 bd
       0.10791248 -0.10854495 0.089938484 -0.0751033
000310 b0 8b ac bc a4 52 49 3c 9c 3a 42 3e 40 fa 3f be
       -0.021062702 0.0122877695 0.1896767 -0.18747807
000320 2c ca bb bd 18 91 a4 3d 2b ce c4 bd cc 1c ce 3d
       -0.091694206 0.08035487 -0.09609636 0.10064086
000330 c6 04 24 3d 90 3e 55 bd f4 67 2f be 71 9f 2a 3e
       0.040043615 -0.052061617 -0.17129499 0.16662385
000340 fd 9c 23 3d 49 b3 1c bd bd ae f3 3d 5c 35 f1 bd
       0.039944638 -0.038256917 0.11898563 -0.117777556
000350 82 e4 05 bd 4c f4 c5 3c 55 6e 62 3d 3c ae 01 bd
       -0.032688625 0.024164341 0.055281002 -0.031660303
000360 2d e9 70 3d e7 46 55 bd 76 8b d7 3d 51 4f cd bd
       0.058816124 -0.05206957 0.10524647 -0.10024894
000370 44 17 13 3e 2e 28 0e be 19 a1 85 3d a9 94 7e bd
       0.14364344 -0.13882515 0.065248676 -0.062153492
000380 83 dd 91 3d 55 2b 89 bd 15 b2 d8 3c 0d 11 c5 bc
       0.07122328 -0.06697718 0.026452104 -0.024055982
000390 4d a0 b4 bd ad bd 98 3d 29 4f ed bd db 49 08 3e
       -0.088196374 0.07458053 -0.11587364 0.13309424
0003a0 59 59 47 bd 33 6b 58 3d 63 cb 64 bd 41 72 0f 3d
       -0.048669193 0.05283661 -0.055858027 0.03502107
0003b0 ba 45 59 3b 1c 4b 0d bc 40 4a f9 bd a4 b1 fb 3d
       0.0033153133 -0.0086238645 -0.12172365 0.12289742
0003c0 7f cb 0e be 70 02 0a 3e 51 46 a3 3d 49 dc b7 bd
       -0.13944815 0.13477492 0.07972396 -0.08977563
0003d0 7b 54 0c be be 0d fc 3d 03 4d 80 bd 8a e0 79 3d
       -0.13704102 0.123073086 -0.06264689 0.061005153
0003e0 99 0d b8 bd 32 48 b9 3d ad a9 a0 3d 9d 58 a5 bd
       -0.089869685 0.09046973 0.07844863 -0.08073542
0003f0 45 51 9f 3d 7f 4d af bd f3 a3 1f 3e 6e b8 21 be
       0.07779173 -0.08559703 0.15589885 -0.1579301
